…
lenet_train_test.prototxt
*********************
name: "LeNet"
layer {
  name: "mnist"
  type: "Data"
  top: "data"
  top: "label"
  include {
    phase: TRAIN
  }
  transform_param {
    scale: 0.00390625
  }
  data_param {
    source: "examples/mnist/mnist_train_lmdb"
    batch_size: 64
    backend: LMDB
  }
}
layer {
  name: "mnist"
  type: "Data"
  top: "data"
  top: "label"
  include {
    phase: TEST
  }
  transform_param {
    scale: 0.00390625
  }
  data_param {
    source: "examples/mnist/mnist_test_lmdb"
    batch_size: 100
    backend: LMDB
  }
}
layer {
  name: "conv1"
  type: "Convolution"
  bottom: "data"
  top: "conv1"
  param {
    lr_mult: 1
  }
  param {
    lr_mult: 2
  }
  convolution_param {
    num_output: 20
    kernel_size: 5
    stride: 1
    weight_filler {
      type: "xavier"
    }
    bias_filler {
      type: "constant"
    }
  }
}
layer {
  name: "pool1"
  type: "Pooling"
  bottom: "conv1"
  top: "pool1"
  pooling_param {
    pool: MAX
    kernel_size: 2
    stride: 2
  }
}
layer {
  name: "conv2"
  type: "Convolution"
  bottom: "pool1"
  top: "conv2"
  param {
    lr_mult: 1
  }
  param {
    lr_mult: 2
  }
  convolution_param {
    num_output: 50
    kernel_size: 5
    stride: 1
    weight_filler {
      type: "xavier"
    }
    bias_filler {
      type: "constant"
    }
  }
}
layer {
  name: "pool2"
  type: "Pooling"
  bottom: "conv2"
  top: "pool2"
  pooling_param {
    pool: MAX
    kernel_size: 2
    stride: 2
  }
}
layer {
  name: "ip1"
  type: "InnerProduct"
  bottom: "pool2"
  top: "ip1"
  param {
    lr_mult: 1
  }
  param {
    lr_mult: 2
  }
  inner_product_param {
    num_output: 500
    weight_filler {
      type: "xavier"
    }
    bias_filler {
      type: "constant"
    }
  }
}
layer {
  name: "relu1"
  type: "ReLU"
  bottom: "ip1"
  top: "ip1"
}
layer {
  name: "ip2"
  type: "InnerProduct"
  bottom: "ip1"
  top: "ip2"
  param {
    lr_mult: 1
  }
  param {
    lr_mult: 2
  }
  inner_product_param {
    num_output: 10
    weight_filler {
      type: "xavier"
    }
    bias_filler {
      type: "constant"
    }
  }
}
layer {
  name: "accuracy"
  type: "Accuracy"
  bottom: "ip2"
  bottom: "label"
  top: "accuracy"
  include {
    phase: TEST
  }
}
layer {
  name: "loss"
  type: "SoftmaxWithLoss"
  bottom: "ip2"
  bottom: "label"
  top: "loss"
}

EOF

### end script ### 


root@9ea41966284c:/opt/caffe# ./examples/mnist/train_lenet.sh
libdc1394 error: Failed to initialize libdc1394
I0223 01:51:44.845149    44 caffe.cpp:177] Use CPU.
I0223 01:51:44.846709    44 solver.cpp:48] Initializing solver from parameters: 
test_iter: 100
test_interval: 500
base_lr: 0.01
display: 100
max_iter: 10000
lr_policy: "inv"
gamma: 0.0001
power: 0.75
momentum: 0.9
weight_decay: 0.0005
snapshot: 5000
snapshot_prefix: "examples/mnist/lenet"
solver_mode: CPU
net: "examples/mnist/lenet_train_test.prototxt"
I0223 01:51:44.847100    44 solver.cpp:91] Creating training net from net file: examples/mnist/lenet_train_test.prototxt
I0223 01:51:44.847378    44 net.cpp:322] The NetState phase (0) differed from the phase (1) specified by a rule in layer mnist
I0223 01:51:44.847594    44 net.cpp:322] The NetState phase (0) differed from the phase (1) specified by a rule in layer accuracy
I0223 01:51:44.847676    44 net.cpp:49] Initializing net from parameters: 
name: "LeNet"
state {
  phase: TRAIN
}
layer {
  name: "mnist"
  type: "Data"
  top: "data"
  top: "label"
  include {
    phase: TRAIN
  }
  transform_param {
    scale: 0.00390625
  }
  data_param {
    source: "examples/mnist/mnist_train_lmdb"
    batch_size: 64
    backend: LMDB
  }
}
layer {
  name: "conv1"
  type: "Convolution"
  bottom: "data"
  top: "conv1"
  param {
    lr_mult: 1
  }
  param {
    lr_mult: 2
  }
  convolution_param {
    num_output: 20
    kernel_size: 5
    stride: 1
    weight_filler {
      type: "xavier"
    }
    bias_filler {
      type: "constant"
    }
  }
}
layer {
  name: "pool1"
  type: "Pooling"
  bottom: "conv1"
  top: "pool1"
  pooling_param {
    pool: MAX
    kernel_size: 2
    stride: 2
  }
}
layer {
  name: "conv2"
  type: "Convolution"
  bottom: "pool1"
  top: "conv2"
  param {
    lr_mult: 1
  }
  param {
    lr_mult: 2
  }
  convolution_param {
    num_output: 50
    kernel_size: 5
    stride: 1
    weight_filler {
      type: "xavier"
    }
    bias_filler {
      type: "constant"
    }
  }
}
layer {
  name: "pool2"
  type: "Pooling"
  bottom: "conv2"
  top: "pool2"
  pooling_param {
    pool: MAX
    kernel_size: 2
    stride: 2
  }
}
layer {
  name: "ip1"
  type: "InnerProduct"
  bottom: "pool2"
  top: "ip1"
  param {
    lr_mult: 1
  }
  param {
    lr_mult: 2
  }
  inner_product_param {
    num_output: 500
    weight_filler {
      type: "xavier"
    }
    bias_filler {
      type: "constant"
    }
  }
}
layer {
  name: "relu1"
  type: "ReLU"
  bottom: "ip1"
  top: "ip1"
}
layer {
  name: "ip2"
  type: "InnerProduct"
  bottom: "ip1"
  top: "ip2"
  param {
    lr_mult: 1
  }
  param {
    lr_mult: 2
  }
  inner_product_param {
    num_output: 10
    weight_filler {
      type: "xavier"
    }
    bias_filler {
      type: "constant"
    }
  }
}
layer {
  name: "loss"
  type: "SoftmaxWithLoss"
  bottom: "ip2"
  bottom: "label"
  top: "loss"
}
I0223 01:51:44.849884    44 layer_factory.hpp:76] Creating layer mnist
I0223 01:51:44.851091    44 net.cpp:106] Creating Layer mnist
I0223 01:51:44.851150    44 net.cpp:411] mnist -> data
I0223 01:51:44.851203    44 net.cpp:411] mnist -> label
I0223 01:51:44.851361    45 db_lmdb.cpp:38] Opened lmdb examples/mnist/mnist_train_lmdb
I0223 01:51:44.851429    44 data_layer.cpp:41] output data size: 64,1,28,28
I0223 01:51:44.851805    44 net.cpp:150] Setting up mnist
I0223 01:51:44.852077    44 net.cpp:157] Top shape: 64 1 28 28 (50176)
I0223 01:51:44.852104    44 net.cpp:157] Top shape: 64 (64)
I0223 01:51:44.852125    44 net.cpp:165] Memory required for data: 200960
I0223 01:51:44.852150    44 layer_factory.hpp:76] Creating layer conv1
I0223 01:51:44.852181    44 net.cpp:106] Creating Layer conv1
I0223 01:51:44.852205    44 net.cpp:454] conv1 <- data
I0223 01:51:44.852234    44 net.cpp:411] conv1 -> conv1
I0223 01:51:44.852634    44 net.cpp:150] Setting up conv1
I0223 01:51:44.852663    44 net.cpp:157] Top shape: 64 20 24 24 (737280)
I0223 01:51:44.852689    44 net.cpp:165] Memory required for data: 3150080
I0223 01:51:44.852718    44 layer_factory.hpp:76] Creating layer pool1
I0223 01:51:44.852744    44 net.cpp:106] Creating Layer pool1
I0223 01:51:44.852774    44 net.cpp:454] pool1 <- conv1
I0223 01:51:44.852797    44 net.cpp:411] pool1 -> pool1
I0223 01:51:44.852907    44 net.cpp:150] Setting up pool1
I0223 01:51:44.852936    44 net.cpp:157] Top shape: 64 20 12 12 (184320)
I0223 01:51:44.852957    44 net.cpp:165] Memory required for data: 3887360
I0223 01:51:44.852977    44 layer_factory.hpp:76] Creating layer conv2
I0223 01:51:44.853000    44 net.cpp:106] Creating Layer conv2
I0223 01:51:44.853020    44 net.cpp:454] conv2 <- pool1
I0223 01:51:44.853783    44 net.cpp:411] conv2 -> conv2
I0223 01:51:44.855121    44 net.cpp:150] Setting up conv2
I0223 01:51:44.855201    44 net.cpp:157] Top shape: 64 50 8 8 (204800)
I0223 01:51:44.855252    44 net.cpp:165] Memory required for data: 4706560
I0223 01:51:44.855304    44 layer_factory.hpp:76] Creating layer pool2
I0223 01:51:44.855639    44 net.cpp:106] Creating Layer pool2
I0223 01:51:44.855666    44 net.cpp:454] pool2 <- conv2
I0223 01:51:44.855692    44 net.cpp:411] pool2 -> pool2
I0223 01:51:44.855727    44 net.cpp:150] Setting up pool2
I0223 01:51:44.855753    44 net.cpp:157] Top shape: 64 50 4 4 (51200)
I0223 01:51:44.855775    44 net.cpp:165] Memory required for data: 4911360
I0223 01:51:44.855798    44 layer_factory.hpp:76] Creating layer ip1
I0223 01:51:44.855829    44 net.cpp:106] Creating Layer ip1
I0223 01:51:44.855851    44 net.cpp:454] ip1 <- pool2
I0223 01:51:44.855875    44 net.cpp:411] ip1 -> ip1
I0223 01:51:44.864680    44 net.cpp:150] Setting up ip1
I0223 01:51:44.864795    44 net.cpp:157] Top shape: 64 500 (32000)
I0223 01:51:44.864822    44 net.cpp:165] Memory required for data: 5039360
I0223 01:51:44.864856    44 layer_factory.hpp:76] Creating layer relu1
I0223 01:51:44.864881    44 net.cpp:106] Creating Layer relu1
I0223 01:51:44.864902    44 net.cpp:454] relu1 <- ip1
I0223 01:51:44.864926    44 net.cpp:397] relu1 -> ip1 (in-place)
I0223 01:51:44.864959    44 net.cpp:150] Setting up relu1
I0223 01:51:44.864981    44 net.cpp:157] Top shape: 64 500 (32000)
I0223 01:51:44.865000    44 net.cpp:165] Memory required for data: 5167360
I0223 01:51:44.865020    44 layer_factory.hpp:76] Creating layer ip2
I0223 01:51:44.865103    44 net.cpp:106] Creating Layer ip2
I0223 01:51:44.865133    44 net.cpp:454] ip2 <- ip1
I0223 01:51:44.865155    44 net.cpp:411] ip2 -> ip2
I0223 01:51:44.865222    44 net.cpp:150] Setting up ip2
I0223 01:51:44.865247    44 net.cpp:157] Top shape: 64 10 (640)
I0223 01:51:44.865269    44 net.cpp:165] Memory required for data: 5169920
I0223 01:51:44.865291    44 layer_factory.hpp:76] Creating layer loss
I0223 01:51:44.865324    44 net.cpp:106] Creating Layer loss
I0223 01:51:44.865345    44 net.cpp:454] loss <- ip2
I0223 01:51:44.865365    44 net.cpp:454] loss <- label
I0223 01:51:44.865388    44 net.cpp:411] loss -> loss
I0223 01:51:44.865422    44 layer_factory.hpp:76] Creating layer loss
…
I0223 01:51:44.866175    44 solver.cpp:181] Creating test net (#0) specified by net file: examples/mnist/lenet_train_test.prototxt
I0223 01:51:44.866222    44 net.cpp:322] The NetState phase (1) differed from the phase (0) specified by a rule in layer mnist
I0223 01:51:44.866341    44 net.cpp:49] Initializing net from parameters: 
name: "LeNet"
state {
  phase: TEST
}
layer {
  name: "mnist"
  type: "Data"
  top: "data"
  top: "label"
  include {
    phase: TEST
  }
  transform_param {
    scale: 0.00390625
  }
  data_param {
    source: "examples/mnist/mnist_test_lmdb"
    batch_size: 100
    backend: LMDB
  }
}
layer {
  name: "conv1"
  type: "Convolution"
  bottom: "data"
  top: "conv1"
  param {
    lr_mult: 1
  }
  param {
    lr_mult: 2
  }
  convolution_param {
    num_output: 20
    kernel_size: 5
    stride: 1
    weight_filler {
      type: "xavier"
    }
    bias_filler {
      type: "constant"
    }
  }
}
layer {
  name: "pool1"
  type: "Pooling"
  bottom: "conv1"
  top: "pool1"
  pooling_param {
    pool: MAX
    kernel_size: 2
    stride: 2
  }
}
layer {
  name: "conv2"
  type: "Convolution"
  bottom: "pool1"
  top: "conv2"
  param {
    lr_mult: 1
  }
  param {
    lr_mult: 2
  }
  convolution_param {
    num_output: 50
    kernel_size: 5
    stride: 1
    weight_filler {
      type: "xavier"
    }
    bias_filler {
      type: "constant"
    }
  }
}
layer {
  name: "pool2"
  type: "Pooling"
  bottom: "conv2"
  top: "pool2"
  pooling_param {
    pool: MAX
    kernel_size: 2
    stride: 2
  }
}
layer {
  name: "ip1"
  type: "InnerProduct"
  bottom: "pool2"
  top: "ip1"
  param {
    lr_mult: 1
  }
  param {
    lr_mult: 2
  }
  inner_product_param {
    num_output: 500
    weight_filler {
      type: "xavier"
    }
    bias_filler {
      type: "constant"
    }
  }
}
layer {
  name: "relu1"
  type: "ReLU"
  bottom: "ip1"
  top: "ip1"
}
layer {
  name: "ip2"
  type: "InnerProduct"
  bottom: "ip1"
  top: "ip2"
  param {
    lr_mult: 1
  }
  param {
    lr_mult: 2
  }
  inner_product_param {
    num_output: 10
    weight_filler {
      type: "xavier"
    }
    bias_filler {
      type: "constant"
    }
  }
}
layer {
  name: "accuracy"
  type: "Accuracy"
  bottom: "ip2"
  bottom: "label"
  top: "accuracy"
  include {
    phase: TEST
  }
}
layer {
  name: "loss"
  type: "SoftmaxWithLoss"
  bottom: "ip2"
  bottom: "label"
  top: "loss"
}
I0223 01:51:44.868486    44 layer_factory.hpp:76] Creating layer mnist
I0223 01:51:44.868669    44 net.cpp:106] Creating Layer mnist
I0223 01:51:44.869611    44 net.cpp:411] mnist -> data
I0223 01:51:44.869650    44 net.cpp:411] mnist -> label
I0223 01:51:44.869771    47 db_lmdb.cpp:38] Opened lmdb examples/mnist/mnist_test_lmdb
I0223 01:51:44.869824    44 data_layer.cpp:41] output data size: 100,1,28,28
I0223 01:51:44.870864    44 net.cpp:150] Setting up mnist
I0223 01:51:44.870925    44 net.cpp:157] Top shape: 100 1 28 28 (78400)
I0223 01:51:44.870955    44 net.cpp:157] Top shape: 100 (100)
I0223 01:51:44.870978    44 net.cpp:165] Memory required for data: 314000
I0223 01:51:44.871001    44 layer_factory.hpp:76] Creating layer label_mnist_1_split
I0223 01:51:44.871117    44 net.cpp:106] Creating Layer label_mnist_1_split
I0223 01:51:44.871191    44 net.cpp:454] label_mnist_1_split <- label
I0223 01:51:44.871218    44 net.cpp:411] label_mnist_1_split -> label_mnist_1_split_0
I0223 01:51:44.871248    44 net.cpp:411] label_mnist_1_split -> label_mnist_1_split_1
I0223 01:51:44.871290    44 net.cpp:150] Setting up label_mnist_1_split
I0223 01:51:44.871589    44 net.cpp:157] Top shape: 100 (100)
I0223 01:51:44.871614    44 net.cpp:157] Top shape: 100 (100)
I0223 01:51:44.871636    44 net.cpp:165] Memory required for data: 314800
I0223 01:51:44.871656    44 layer_factory.hpp:76] Creating layer conv1
I0223 01:51:44.871695    44 net.cpp:106] Creating Layer conv1
I0223 01:51:44.871717    44 net.cpp:454] conv1 <- data
I0223 01:51:44.871744    44 net.cpp:411] conv1 -> conv1
I0223 01:51:44.871793    44 net.cpp:150] Setting up conv1
I0223 01:51:44.871819    44 net.cpp:157] Top shape: 100 20 24 24 (1152000)
I0223 01:51:44.871839    44 net.cpp:165] Memory required for data: 4922800
I0223 01:51:44.871865    44 layer_factory.hpp:76] Creating layer pool1
I0223 01:51:44.871891    44 net.cpp:106] Creating Layer pool1
I0223 01:51:44.871912    44 net.cpp:454] pool1 <- conv1
I0223 01:51:44.871966    44 net.cpp:411] pool1 -> pool1
I0223 01:51:44.871999    44 net.cpp:150] Setting up pool1
I0223 01:51:44.872023    44 net.cpp:157] Top shape: 100 20 12 12 (288000)
I0223 01:51:44.872249    44 net.cpp:165] Memory required for data: 6074800
I0223 01:51:44.872272    44 layer_factory.hpp:76] Creating layer conv2
I0223 01:51:44.872301    44 net.cpp:106] Creating Layer conv2
I0223 01:51:44.872328    44 net.cpp:454] conv2 <- pool1
I0223 01:51:44.872604    44 net.cpp:411] conv2 -> conv2
I0223 01:51:44.872802    44 net.cpp:150] Setting up conv2
I0223 01:51:44.872828    44 net.cpp:157] Top shape: 100 50 8 8 (320000)
I0223 01:51:44.873082    44 net.cpp:165] Memory required for data: 7354800
I0223 01:51:44.873116    44 layer_factory.hpp:76] Creating layer pool2
I0223 01:51:44.873147    44 net.cpp:106] Creating Layer pool2
I0223 01:51:44.873170    44 net.cpp:454] pool2 <- conv2
I0223 01:51:44.873194    44 net.cpp:411] pool2 -> pool2
I0223 01:51:44.873224    44 net.cpp:150] Setting up pool2
I0223 01:51:44.873247    44 net.cpp:157] Top shape: 100 50 4 4 (80000)
I0223 01:51:44.873267    44 net.cpp:165] Memory required for data: 7674800
I0223 01:51:44.873286    44 layer_factory.hpp:76] Creating layer ip1
I0223 01:51:44.873314    44 net.cpp:106] Creating Layer ip1
I0223 01:51:44.873335    44 net.cpp:454] ip1 <- pool2
I0223 01:51:44.873359    44 net.cpp:411] ip1 -> ip1
I0223 01:51:44.881389    44 net.cpp:150] Setting up ip1
I0223 01:51:44.891966    44 net.cpp:157] Top shape: 100 500 (50000)
I0223 01:51:44.891988    44 net.cpp:165] Memory required for data: 7874800
I0223 01:51:44.892005    44 layer_factory.hpp:76] Creating layer relu1
I0223 01:51:44.892050    44 net.cpp:106] Creating Layer relu1
I0223 01:51:44.892065    44 net.cpp:454] relu1 <- ip1
I0223 01:51:44.892077    44 net.cpp:397] relu1 -> ip1 (in-place)
I0223 01:51:44.892091    44 net.cpp:150] Setting up relu1
I0223 01:51:44.892097    44 net.cpp:157] Top shape: 100 500 (50000)
I0223 01:51:44.892102    44 net.cpp:165] Memory required for data: 8074800
I0223 01:51:44.892108    44 layer_factory.hpp:76] Creating layer ip2
I0223 01:51:44.892120    44 net.cpp:106] Creating Layer ip2
I0223 01:51:44.892127    44 net.cpp:454] ip2 <- ip1
I0223 01:51:44.892134    44 net.cpp:411] ip2 -> ip2
I0223 01:51:44.892185    44 net.cpp:150] Setting up ip2
I0223 01:51:44.892194    44 net.cpp:157] Top shape: 100 10 (1000)
I0223 01:51:44.892199    44 net.cpp:165] Memory required for data: 8078800
I0223 01:51:44.892206    44 layer_factory.hpp:76] Creating layer ip2_ip2_0_split
I0223 01:51:44.892213    44 net.cpp:106] Creating Layer ip2_ip2_0_split
I0223 01:51:44.892220    44 net.cpp:454] ip2_ip2_0_split <- ip2
I0223 01:51:44.892225    44 net.cpp:411] ip2_ip2_0_split -> ip2_ip2_0_split_0
I0223 01:51:44.892233    44 net.cpp:411] ip2_ip2_0_split -> ip2_ip2_0_split_1
I0223 01:51:44.892241    44 net.cpp:150] Setting up ip2_ip2_0_split
I0223 01:51:44.892249    44 net.cpp:157] Top shape: 100 10 (1000)
I0223 01:51:44.892256    44 net.cpp:157] Top shape: 100 10 (1000)
I0223 01:51:44.892261    44 net.cpp:165] Memory required for data: 8086800
I0223 01:51:44.892266    44 layer_factory.hpp:76] Creating layer accuracy
I0223 01:51:44.892273    44 net.cpp:106] Creating Layer accuracy
I0223 01:51:44.892278    44 net.cpp:454] accuracy <- ip2_ip2_0_split_0
I0223 01:51:44.892285    44 net.cpp:454] accuracy <- label_mnist_1_split_0
I0223 01:51:44.892292    44 net.cpp:411] accuracy -> accuracy
…
